…
pingvin@DESKTOP-84F9M51:/mnt/f/dataset$ code Automatised-Analysis-of-Darknet-Sources/
pingvin@DESKTOP-84F9M51:/mnt/f/dataset$ source mamba-env/bin/activate
(mamba-env) pingvin@DESKTOP-84F9M51:/mnt/f/dataset$ python3 Automatised-Analysis-of-Darknet-Sources/train_bert.py
Using device: cuda
Loading data from final.csv...
Total samples: 10636
Train samples: 6381
Validation samples: 4255
model.safetensors: 100%|█████████████████████████████████████████████████████████████| 440M/440M [00:48<00:00, 9.09MB/s]
Model: BERTClassifier(
  (bert): BertModel(
    (embeddings): BertEmbeddings(
      (word_embeddings): Embedding(30522, 768, padding_idx=0)
      (position_embeddings): Embedding(512, 768)
      (token_type_embeddings): Embedding(2, 768)
      (LayerNorm): LayerNorm((768,), eps=1e-12, elementwise_affine=True)
      (dropout): Dropout(p=0.1, inplace=False)
    )
    (encoder): BertEncoder(
      (layer): ModuleList(
        (0-11): 12 x BertLayer(
          (attention): BertAttention(
            (self): BertSdpaSelfAttention(
              (query): Linear(in_features=768, out_features=768, bias=True)
              (key): Linear(in_features=768, out_features=768, bias=True)
              (value): Linear(in_features=768, out_features=768, bias=True)
              (dropout): Dropout(p=0.1, inplace=False)
            )
            (output): BertSelfOutput(
              (dense): Linear(in_features=768, out_features=768, bias=True)
              (LayerNorm): LayerNorm((768,), eps=1e-12, elementwise_affine=True)
              (dropout): Dropout(p=0.1, inplace=False)
            )
          )
          (intermediate): BertIntermediate(
            (dense): Linear(in_features=768, out_features=3072, bias=True)
            (intermediate_act_fn): GELUActivation()
          )
          (output): BertOutput(
            (dense): Linear(in_features=3072, out_features=768, bias=True)
            (LayerNorm): LayerNorm((768,), eps=1e-12, elementwise_affine=True)
            (dropout): Dropout(p=0.1, inplace=False)
          )
        )
      )
    )
    (pooler): BertPooler(
      (dense): Linear(in_features=768, out_features=768, bias=True)
      (activation): Tanh()
    )
  )
  (classifier): Sequential(
    (0): Dropout(p=0.1, inplace=False)
    (1): Linear(in_features=768, out_features=4, bias=True)
  )
)
Number of parameters: 109485316
              precision    recall  f1-score   support

           0     0.9904    0.9918    0.9911      2078
           1     0.8333    0.7692    0.8000        26
           2     0.7949    0.8732    0.8322        71
           3     0.9995    0.9957    0.9976      2080

    accuracy                         0.9904      4255
…
