…
Requirement already satisfied: tzdata>=2022.7 in ./mamba-env/lib/python3.10/site-packages (from pandas>=1.2->seaborn) (2025.2)
Requirement already satisfied: six>=1.5 in ./mamba-env/lib/python3.10/site-packages (from python-dateutil>=2.7->matplotlib!=3.6.1,>=3.4->seaborn) (1.17.0)
Downloading seaborn-0.13.2-py3-none-any.whl (294 kB)
Installing collected packages: seaborn
Successfully installed seaborn-0.13.2
(mamba-env) pingvin@DESKTOP-84F9M51:/mnt/f/dataset$ python3 Automatised-Analysis-of-Darknet-Sources/train_pure_mamba.py
Using device: cuda
Loading data from reviewed_pseudolabels.csv...
Total samples: 4126
Train samples: 3300
Validation samples: 826
Model: MambaClassifier(
  (embedding): Embedding(30522, 768)
  (mamba_layers): ModuleList(
    (0-15): 16 x Mamba(
      (in_proj): Linear(in_features=768, out_features=3072, bias=False)
      (conv1d): Conv1d(1536, 1536, kernel_size=(4,), stride=(1,), padding=(3,), groups=1536)
      (act): SiLU()
      (x_proj): Linear(in_features=1536, out_features=80, bias=False)
      (dt_proj): Linear(in_features=48, out_features=1536, bias=True)
      (out_proj): Linear(in_features=1536, out_features=768, bias=False)
    )
  )
  (global_pool): AdaptiveAvgPool1d(output_size=1)
  (classifier): Sequential(
    (0): Linear(in_features=768, out_features=384, bias=True)
    (1): ReLU()
    (2): Dropout(p=0.3, inplace=False)
    (3): Linear(in_features=384, out_features=4, bias=True)
  )
)
Number of parameters: 84071812
Traceback (most recent call last):
  File "/mnt/f/dataset/Automatised-Analysis-of-Darknet-Sources/train_pure_mamba.py", line 200, in <module>
    main("reviewed_pseudolabels.csv")
  File "/mnt/f/dataset/Automatised-Analysis-of-Darknet-Sources/train_pure_mamba.py", line 167, in main
    train_loss = train_epoch(model, train_loader, optimizer, criterion, device, epoch)
…
(mamba-env) pingvin@DESKTOP-84F9M51:/mnt/f/dataset$ python3 Automatised-Analysis-of-Darknet-Sources/train_aemamba.py
Traceback (most recent call last):
  File "/mnt/f/dataset/Automatised-Analysis-of-Darknet-Sources/train_aemamba.py", line 16, in <module>
    from model import SparseAE_CNN_Mamba # <--- Changed model import
ModuleNotFoundError: No module named 'model'
(mamba-env) pingvin@DESKTOP-84F9M51:/mnt/f/dataset$ python3 Automatised-Analysis-of-Darknet-Sources/train_aemamba.py
Using device: cuda
Loading data from final.csv...
Total samples: 10636
Train samples: 8508
Validation samples: 2128
Model: SparseAE_CNN_Mamba(
  (embed): Embedding(30522, 256)
  (ae): SparseLinearAE(
    (encoder): Linear(in_features=256, out_features=128, bias=True)
    (decoder): Linear(in_features=128, out_features=256, bias=True)
  )
  (conv): Conv1d(128, 128, kernel_size=(5,), stride=(1,), padding=(2,))
  (pool): AdaptiveMaxPool1d(output_size=64)
  (mamba): Mamba(
    (in_proj): Linear(in_features=128, out_features=512, bias=False)
    (conv1d): Conv1d(256, 256, kernel_size=(4,), stride=(1,), padding=(3,), groups=256)
    (act): SiLU()
    (x_proj): Linear(in_features=256, out_features=136, bias=False)
    (dt_proj): Linear(in_features=8, out_features=256, bias=True)
    (out_proj): Linear(in_features=256, out_features=128, bias=False)
  )
  (fc): Linear(in_features=128, out_features=4, bias=True)
)
Number of parameters: 8115460
Traceback (most recent call last):
  File "/mnt/f/dataset/Automatised-Analysis-of-Darknet-Sources/train_aemamba.py", line 274, in <module>
    main("final.csv")
  File "/mnt/f/dataset/Automatised-Analysis-of-Darknet-Sources/train_aemamba.py", line 242, in main
    evaluate(model, val_loader, criterion_classif, criterion_recon, device)
…
